checkpoint.pth (torch_old, 28447 bytes, 6 tensors)

fc1.weight f4 [64, 37]
000000 12 d8 49 b9 d6 49 f2 3d e0 ce ae bd 92 f7 c3 be
       -0.00019249346 0.11830489 -0.08535552 -0.3827482
000010 c2 df 27 be 58 40 2e be ce 75 6e 3d 52 06 02 3e
       -0.1639395 -0.17016733 0.058217816 0.12697724
000020 7b 4d c3 3e 2e 7f 42 be 7d d2 c0 3c 71 99 9c bd
       0.3814505 -0.18993828 0.023537869 -0.07646454
000030 1f 17 b1 bd aa 26 a2 be 7e 0d 5a bf bf 37 05 3e
       -0.08646988 -0.31670123 -0.8517684 0.13009547
000040 a3 bb 9d bd cd 9e 36 3d e8 fc 25 3e b1 df 0f be
       -0.077018045 0.044585038 0.16209757 -0.14050175
000050 a3 41 38 38 1c 26 38 3e d7 eb 1a 3d d0 6c 61 3e
       4.3930148e-05 0.17983288 0.03782257 0.22014165
000060 7b ef c6 3d 78 fc 20 bd dd 2a 12 3d fa 0a 43 3e
       0.09713646 -0.039303273 0.03568541 0.19047156
000070 5e 26 01 bf ad b1 94 be 54 80 f5 3d 05 a3 05 be
       -0.5044917 -0.29041806 0.11987367 -0.13050468
000080 73 cf 3d be 05 71 3b be 13 48 64 bd f8 3b 93 be
       -0.18536167 -0.18304832 -0.055732798 -0.2875669
000090 bd bd a5 bd 5b 8d 95 3e 46 97 15 3e cd c7 ea 3d
       -0.0809283 0.29209408 0.14608487 0.1146389
0000a0 b5 c5 23 3d 38 8b a0 be a1 90 25 3e 29 15 2e bd
       0.03998347 -0.31356215 0.16168453 -0.04250065
0000b0 5d c2 2b bd 40 8b d2 bd 64 a9 3a be 80 56 14 3e
       -0.041933406 -0.10280466 -0.1822868 0.14486122
0000c0 14 84 43 3d d7 60 87 3d 11 11 83 3e 4e f5 ef 3d
       0.04773338 0.066102676 0.25598958 0.1171671
0000d0 90 cb 6e 3e 6b db c3 bd d1 0f 3a 3e a4 2d 10 3e
       0.2331984 -0.09563335 0.18170096 0.1407991
0000e0 03 f3 bb bd be 0c cb 3d 74 b5 7d bd 79 1a c8 bc
       -0.0917721 0.0991454 -0.061940625 -0.024426686
0000f0 5c 62 6e bd bc f4 10 be 06 01 56 3e 74 aa d8 3d
       -0.05819927 -0.14155859 0.20898828 0.10579386
000100 49 7d 87 3c fb 99 76 be 84 51 d0 be 0c 03 81 3e
       0.016539233 -0.24082176 -0.4068719 0.25197637
000110 84 06 e0 3d fb bc 29 3e 51 a1 57 bd f9 42 52 be
       0.10938743 0.16575997 -0.052644078 -0.2053336
000120 ca 68 e7 bc 65 65 14 3b 02 6b 4d 3c c8 eb 6d 3e
       -0.02824821 0.0022643444 0.01253772 0.23234475
000130 4c 4a 34 3e 0a 9a fc 3d 4a 47 0e be 71 ee 81 bf
       0.17606467 0.12334068 -0.13894382 -1.0150892
000140 cd 7b d6 3e 13 87 87 3e 98 9c 6d be 98 9c 53 bf
       0.41891328 0.2647024 -0.23204267 -0.8266082
000150 87 3c 41 be 1a d7 31 3e e1 b7 f7 bd 4e b2 ab bb
       -0.18870746 0.17367211 -0.12095619 -0.0052397614
000160 b6 e7 b6 3c 4f 1a 2a be ff 96 62 3e 31 3d cc 3d
       0.022327285 -0.16611598 0.22127913 0.09972609
000170 91 b7 a7 3d 43 c7 81 be 2b f0 fe bd 77 40 84 3d
       0.081893094 -0.25347337 -0.12448152 0.06457608
000180 f9 be 28 bc ea 5f 3d bc b8 3b ab 3b 23 5f 7c bf
       -0.010299438 -0.011558512 0.005225625 -0.9858267
000190 b8 0b 95 3e 86 de 9e 3e 7f c2 fc 3d 73 42 ff be
       0.29110503 0.31029147 0.12341785 -0.49855384
0001a0 d4 ba 4d be 3d e8 89 bd 07 1c 4e 3d 0e a3 b4 bd
       -0.200908 -0.06733749 0.050319698 -0.08820163
0001b0 31 4f 6b bd 0f 55 52 ba 58 16 0f bb 4c ce 34 bf
       -0.05744857 -0.0008023539 -0.0021833386 -0.70627284
0001c0 32 23 ae 3e 65 a8 69 be dd ce fb 3c 54 6e dd be
       0.34011227 -0.22818144 0.030738289 -0.43248236
0001d0 23 a6 ba bd 14 eb 58 be 43 39 45 3e 6d 61 c0 be
       -0.09113719 -0.21183425 0.19260125 -0.3757433
0001e0 83 a1 00 3e 41 69 a7 3e 66 8a 50 bf c0 45 52 bf
       0.12561612 0.3269749 -0.8146118 -0.8213768
0001f0 77 87 b0 be dc fb d3 bf 8c 4d 40 be 8c 2c ed 3d
       -0.3447835 -1.6561236 -0.18779582 0.11580762
000200 56 ca 87 be 75 9f c1 be cd 00 da be 1e e7 eb 3d
       -0.26521558 -0.3781697 -0.42578736 0.115186915
000210 ea 04 dc bd 2c a1 25 ba 20 97 16 3d 4a 99 12 bd
       -0.10743125 -0.0006318267 0.036765218 -0.03579072
000220 8a 74 16 be 21 cb 6a 3e cd e6 b1 bd 46 39 5f be
       -0.14692894 0.2292905 -0.086866 -0.21799192
000230 3b 1a ec 3b 05 0b 2e 3d 93 d7 1a be c9 61 50 bd
       0.0072052754 0.042490978 -0.15121298 -0.050874505
000240 7e 58 63 be 5c 76 94 be 78 2c ce bd c0 78 82 bd
       -0.22201726 -0.2899655 -0.100670755 -0.063706875
000250 c2 f3 0c be bc e5 bd bd 02 8e 27 be 91 9d e6 bd
       -0.13764861 -0.09272334 -0.16362765 -0.11260522
000260 83 38 90 bd a7 0e 83 3e 49 05 38 bf 56 04 06 bf
       -0.07042029 0.25597116 -0.71883065 -0.52350366
000270 89 c8 2e bf 5d d2 15 c0 18 5e 68 3d 8d 07 64 3c
       -0.6827474 -2.3409646 0.05673036 0.013917816
000280 c8 16 27 be b2 01 20 be ec ff f1 bd e6 15 b6 3c
       -0.16317284 -0.15625647 -0.11816391 0.022227239
000290 71 59 30 be 67 e9 d6 3d 14 ec 60 be 1a 93 b4 3d
       -0.17221619 0.10493737 -0.21965057 0.0881712
0002a0 46 0a 30 bd 21 e1 b9 3d 64 75 2c be 2c 1b 86 3e
       -0.042978548 0.09076143 -0.16841656 0.26192605
0002b0 3c ae 6a 3e cb 1e f8 bd ba 91 f9 3d 15 f2 89 3e
       0.22918028 -0.12115248 0.12185998 0.26942506
0002c0 33 ab 05 3e 90 38 b4 3e 9c 03 52 bd 78 95 cc bd
       0.13053589 0.35199404 -0.051272973 -0.099894464
0002d0 ce 4d 10 3e 9e c7 6d 3e 7d 1c 9e 3e 00 06 98 bd
       0.1409218 0.23220679 0.3088111 -0.074230194
0002e0 e5 b3 6f 3b 2a e6 8b 3d 89 99 ed 3c e4 ed e3 bb
       0.0036575731 0.0683101 0.029003875 -0.006955849
0002f0 9e 4d ae 3c b9 49 d7 3c 89 1b b0 3e 8f 86 d9 bd
       0.021277245 0.02628027 0.34396008 -0.10621368
000300 03 4b 6f bf e1 76 10 bf 88 24 e2 bf 54 84 49 3d
       -0.93473834 -0.56431395 -1.7667398 0.049198464
000310 95 6a 37 bd f9 60 6a bd e4 7e 72 3d 23 d3 2a 3d
       -0.04477938 -0.057221387 0.059203044 0.041705262
000320 40 2b 15 3c ba 20 9f 3d 75 49 6c bd af 6d b5 3d
       0.00910455 0.07769914 -0.05768724 0.08858811
000330 41 1c c2 3d 18 6e 12 3e b6 37 7c bd a7 bb 5e 3e
       0.09478045 0.1429981 -0.061576568 0.21751271
000340 dd a5 5a 3e 61 e8 3d 3e 72 9a 1b bd a3 d6 9f 3b
       0.21352334 0.18545677 -0.037989087 0.0048778816
000350 4e 6c 00 3e 77 d2 5a 3e e5 cf 97 3e 04 d4 97 3d
       0.12541315 0.21369348 0.29650798 0.07413486
000360 24 8e 43 3e 80 9c fc 3c 5d 9c 17 be d0 c4 a2 bc
       0.19097191 0.030836344 -0.14805742 -0.019869238
000370 ea d2 91 3d 1e 6b d2 bc 99 29 a2 3d e5 fe 63 be
       0.07120307 -0.025685843 0.079180904 -0.22265203
000380 8a 5b 7d 3e f5 b0 03 bf 14 d2 24 bf 08 1c 92 bc
       0.2474195 -0.5144189 -0.64383054 -0.017835632
000390 c6 16 3f bf dc ef fb bc 23 19 92 3e af 61 64 be
       -0.74644125 -0.030754022 0.28534803 -0.22302888
0003a0 1d da ee 3d 5c 00 05 be 99 bb 0c 3e cd 3e 6e bd
       0.116626956 -0.12988418 0.13743438 -0.05816536
0003b0 b0 fe a1 be b1 9a 06 3e a2 15 23 be 52 6f 2f bd
       -0.31639624 0.13144948 -0.15926221 -0.042830773
0003c0 9a 12 f5 be 80 2f 3f 3e 62 7b b0 bd 16 df a9 3e
       -0.47865754 0.18670464 -0.086172834 0.33178014
0003d0 fa b0 b4 bd fc 4f 39 be 07 73 a3 3e 33 ac 99 bc
       -0.08822818 -0.18096918 0.31923696 -0.018758869
0003e0 d4 66 60 be f4 a9 bc be 51 2c 90 3d 0d 97 92 be
       -0.21914226 -0.36848414 0.07039703 -0.28630868
0003f0 e3 b8 77 3e fb bb d0 be c0 c0 37 3c 1f c4 d8 be
       0.24191622 -0.40768418 0.011215389 -0.4233713

fc1.bias f4 [64]
000000 bd e4 43 3d 97 46 e8 3d 05 cd ab bd 89 de 5a bd
       0.047825564 0.11341589 -0.08388714 -0.053434882
000010 0a 00 bb 3d a1 96 45 bc dc 53 92 3d 69 d6 8b 3d
       0.09130867 -0.0120598385 0.07144901 0.06828005
000020 24 d6 8c 3d ff a6 92 be 2e d9 be 3d ab 2e 7b 3d
       0.068767816 -0.28643033 0.093187675 0.061323803
000030 b4 de d0 3d ff 25 aa bd 0a 86 02 bd 6c 3e 09 bb
       0.10198727 -0.083080284 -0.03186611 -0.0020941747
000040 23 1e 18 3d 72 fe 99 3d 9a 43 6f bd a8 25 93 be
       0.037138116 0.07519235 -0.05841408 -0.28739667
000050 79 2f 3e bd e2 50 56 3d db 8b 84 bd e5 a6 a6 bd
       -0.046431992 0.05232323 -0.06471988 -0.08137301
000060 b7 65 45 be 28 a3 32 3e 96 11 de bc 8e 55 72 be
       -0.19277082 0.17445052 -0.027107995 -0.23665449
000070 54 1b 60 3e 42 1e db 3d 73 79 39 bd 0c 39 50 be
       0.21885425 0.106991306 -0.04528184 -0.20334262
000080 0b d2 08 3e 01 bf 40 bc 1a 40 4b be 24 d8 26 bd
       0.13361375 -0.011764289 -0.19848672 -0.04073347
000090 d3 81 bd bd be ce 29 3d 70 7d e7 bc 50 89 2f be
       -0.09253278 0.04145693 -0.028258055 -0.17142224
0000a0 d8 e8 70 be b4 83 2c 3e 8f 45 51 be b1 73 c2 3e
       -0.23526323 0.16847116 -0.20436691 0.3797889
0000b0 50 c8 eb bc 36 20 4d bd ef 89 46 be 8c 63 66 be
       -0.02878204 -0.050079547 -0.19388555 -0.22498912
0000c0 1e 19 ec bd e0 a1 a1 3d 57 29 44 be 8d e0 a7 bd
       -0.11528228 0.07892203 -0.19156395 -0.081971265
0000d0 c1 99 a9 3d a5 91 6c be bd 83 3f be 1c 3c 0a 3c
       0.08281279 -0.23102434 -0.18702598 0.008437183
0000e0 94 85 14 3d bd 5d 09 3d 28 ac 21 be b9 46 ef bc
       0.036260203 0.03353666 -0.15788329 -0.029208528
0000f0 a3 3a 93 bd cc 06 a7 3c 3e 60 c1 3c 5d 24 a8 3c
       -0.071889184 0.020388983 0.023605462 0.020525152

fc2.weight f4 [64, 64]
000000 fb 4c 0f bd f9 fb d8 3d cc 25 7c 3d 41 4a 1f 3f
       -0.034985524 0.10594935 0.061559483 0.6222268
000010 e4 ae 20 be 3a 13 1c be 36 24 49 bd a7 3a 34 bd
       -0.15691715 -0.1524171 -0.0491068 -0.044001248
000020 af b9 1d 3e 17 6f 44 3e 9d 1d 40 be 2f bc 7c 3e
       0.15402864 0.19183002 -0.18761297 0.24681161
000030 d8 88 24 be 7c b6 31 3e e0 a2 76 3d ed a4 3a 3f
       -0.16067827 0.17354769 0.060213923 0.72907907
000040 bd f2 83 3d e7 df b3 be ca d9 d3 3d e1 a6 d4 3d
       0.06442783 -0.3513176 0.10344274 0.10383392
000050 73 97 2e 3d 99 1d f7 3d c9 3f 5d 3d 51 30 69 be
       0.042624902 0.12066192 0.05401591 -0.22772337
000060 4e 8d 12 3e 51 fd 1d be 69 43 e4 bd ab 49 68 bd
       0.14311716 -0.15428664 -0.1114567 -0.05671088
000070 e1 de 57 be 50 b7 22 be a3 a2 bc 3e db ed 5a bc
       -0.21081115 -0.1589024 0.36842832 -0.013362373
000080 88 ba 88 3d 65 03 a4 be c8 b3 04 bd 6c 0e 5d 3e
       0.06676203 -0.3203384 -0.032398015 0.21587533
000090 a0 7f b2 bd 32 d7 55 bf 44 04 51 3c 7d 4a c5 3d
       -0.08715749 -0.83531487 0.012757365 0.09633348
0000a0 66 29 98 bc a2 a2 4b bd 96 b2 ac 3e e7 cc 5e 3d
       -0.018574428 -0.049715646 0.3373 0.05439463
0000b0 d5 21 a1 be 4d d3 03 3c 27 d4 df 3c d7 ad 6e bd
       -0.31471124 0.0080459835 0.027322842 -0.058271255
0000c0 9f a2 83 3e 57 ec c5 be 2a ef da bd 10 f8 90 3d
       0.25710008 -0.38656875 -0.10690148 0.07078564
0000d0 f1 68 40 3e 3a c6 71 3e 90 98 26 be bf 25 09 be
       0.18790032 0.23610774 -0.16269135 -0.13393305
0000e0 75 b1 1b bd 89 2c aa be 5c f4 08 3e 81 69 61 bd
       -0.038011033 -0.33237103 0.13374466 -0.055032257
0000f0 0b 3e 14 3d 42 39 d8 bb 3b 85 cc bc 9c 62 44 bd
       0.03619198 -0.0065986225 -0.024965873 -0.047945604
000100 5d cc 42 3d 0e aa 11 3b 81 43 18 3e 1a d8 f0 bd
       0.047558177 0.0022226605 0.148695 -0.11759968
000110 0d fa 99 3e c1 5e f7 bc 64 c6 61 be 2e de 03 3e
       0.30073586 -0.03019655 -0.22048336 0.12877724
000120 50 27 99 3d 05 c6 25 3e eb 2a f7 3d c4 22 63 3c
       0.074782014 0.1618882 0.12068733 0.013863269
000130 d8 af 1a 3d 3a 45 16 be eb c1 1b 3d 0a 0a 1b bd
       0.037765354 -0.14674845 0.03802673 -0.03785137
000140 00 10 7b 3d 28 98 8a 3d 7e a9 7b bd 80 b6 88 bd
       0.061294556 0.06767303 -0.061440937 -0.06675434
000150 2c a3 c2 be 1a 16 8d 3d b0 94 6a 3e 70 ab be be
       -0.38015115 0.06888981 0.22908282 -0.3724017
000160 76 56 9a 3d 5e 11 ea bc de 71 c6 bd 3d 9a c4 bd
       0.07536022 -0.028572734 -0.09689687 -0.09599731
000170 56 1b c5 3d 20 20 fd be a9 28 48 bc d6 f3 8e 3e
       0.096243545 -0.49438572 -0.012216725 0.27920407
000180 b3 62 1b bd 6a e8 f1 3d 79 b9 38 be 4c 29 c5 3d
       -0.037935924 0.118119076 -0.18039502 0.096270174
000190 61 cc 80 3c 4c e6 26 3f db 31 18 3f 80 2e 27 be
       0.015722455 0.65195155 0.59451073 -0.16326332
0001a0 8d 4d 45 3d 2b 70 af 3d 0a 01 22 be 15 69 71 bd
       0.04816966 0.08566316 -0.15820709 -0.058938105
0001b0 ca 6a f5 bd 15 5a 96 be 6a f6 d4 bd dc b5 29 be
       -0.11983259 -0.29365602 -0.10398562 -0.1657328
0001c0 e3 22 0e bf d5 1f 38 be 5f ef 2e be fe 7e 02 3e
       -0.5552198 -0.17980893 -0.170835 0.12743756
0001d0 c3 0c 28 be ef c7 7c be 8b e9 50 be 94 e9 f2 3d
       -0.16411118 -0.24685644 -0.2040159 0.11860958
0001e0 b6 1b ea 3b 3a 7d 9b bd ba 78 4c 3c 47 c8 90 3e
       0.0071444167 -0.075922444 0.012479955 0.282778
0001f0 59 ba ab 3b 00 dc b4 bd c7 c6 2d 3d bc a2 22 bd
       0.00524072 -0.08831024 0.042425897 -0.039705977
000200 a6 3b 04 be ab 29 1c 3b 99 3c 80 3d b0 04 07 3e
       -0.12913379 0.0023828547 0.06261558 0.13185382
000210 5c d7 a8 be 78 4e d8 bd e9 29 61 be 63 7e e6 be
       -0.32976806 -0.10561842 -0.21988644 -0.450183
000220 e2 1a 13 3e cc be 85 bd b5 7e aa 3e b8 eb 0b be
       0.14365724 -0.06530532 0.33299795 -0.13664138
000230 36 fd 6e bd 22 05 cd bd fd 37 6c bd d7 7b 91 be
       -0.05834695 -0.10010745 -0.057670582 -0.28414795
000240 1c d2 d0 3d ce 7f 98 bd 60 76 6f bd 9d 9d b5 bd
       0.10196325 -0.07446252 -0.0584625 -0.08867953
000250 5a ec da 3e ff ac c5 bd 55 c1 60 be 09 38 c3 bd
       0.42758447 -0.09652137 -0.2194875 -0.09532172
000260 bf 5c 7d be ba 96 50 bd 4a 06 bb bd 71 8c 0c be
       -0.24742411 -0.050924994 -0.09132059 -0.13725449
000270 09 45 ba bd e0 e9 fd 3e fb 21 70 bd b3 f6 5b 3e
       -0.09095199 0.49592495 -0.058626156 0.21480827
000280 46 14 d8 bd f9 d3 1b 3e 07 2d cd bd f5 7b 5b 3e
       -0.10550742 0.1521758 -0.10018354 0.21434005
000290 28 9b 22 be cc fa c1 be 5f 59 1f 3f 6c 30 49 3d
       -0.158795 -0.37886655 0.62245744 0.049118444
0002a0 86 a3 3f 3e 83 36 8e bc 8d ad 3e bc 12 11 09 be
       0.18714723 -0.017359978 -0.011638057 -0.13385418
0002b0 69 23 ac bd 01 8e 54 bc a3 c4 8c 3e eb b5 a3 bd
       -0.084051915 -0.0129733095 0.27493772 -0.079936825
0002c0 69 b7 af 3c 60 af 00 3b 38 e8 e6 bc d3 a1 2b be
       0.021449761 0.0019635782 -0.028186902 -0.1676095
0002d0 25 93 97 be 14 bf 95 3e d5 19 8d bd aa c8 81 bd
       -0.2960445 0.29247344 -0.06889693 -0.06337102
0002e0 76 19 99 bd 87 3b 2b bb 5c 51 34 be 6c 45 ab be
       -0.074755594 -0.002612801 -0.17609161 -0.33451402
0002f0 33 fa ec bd 4b 1f cf bd a5 2c ff 3d 4b d0 81 3c
       -0.11571159 -0.101133905 0.12459687 0.015846392
000300 72 6c 7c 3e a0 e8 a1 bd 9f ab 60 3e 73 29 ec bd
       0.24650744 -0.07905698 0.21940468 -0.11531343
000310 76 8e f9 bd 22 4f a9 3d 6f 7a 09 bf 1e af 0e 3e
       -0.121853754 0.082670465 -0.53702444 0.1393399
000320 44 57 81 be fd 9c b8 bd 5b 1a e7 3c 33 d8 a5 3e
       -0.2526189 -0.09014318 0.02821081 0.3239151
000330 53 61 8e 3e 09 25 53 3e c5 24 10 3e a5 1e 0e bf
       0.27808627 0.20619597 0.14076526 -0.5551551
000340 38 71 83 3d b4 bf 12 bf 8b 3c ee 3c 16 32 e3 be
       0.06418079 -0.57323766 0.029081604 -0.4437415
000350 18 01 34 bd ef 26 f9 3c ba 5d a9 be 2c 75 17 be
       -0.043946356 0.030414073 -0.3307932 -0.14790791
000360 00 25 e8 bd 65 84 87 3e 1e 17 0a be 7d 0e 96 3e
       -0.11335182 0.26468197 -0.13485381 0.2930793
000370 5f 9b c6 bd 5a 3d 9b 3d 4a a3 cc 3e 67 1a 98 be
       -0.096976034 0.07580061 0.3996833 -0.29707643
000380 ca 89 51 be 6a f5 cf bd be 31 86 3c da 38 83 3e
       -0.20462719 -0.10154231 0.01638114 0.25629312
000390 40 04 53 bf 33 b3 41 be 0d 1f 06 3e b3 fe 53 3e
       -0.8242836 -0.18916015 0.13097782 0.20702629
0003a0 1a 2b 89 bd 5c ba 95 3e 65 d6 0b 3e 20 27 55 be
       -0.06697674 0.29243743 0.13656004 -0.20815706
0003b0 07 e4 d3 3b 92 a2 ac 3e 5a 23 ad 3d 21 14 6f bf
       0.006466392 0.3371778 0.084540084 -0.9339009
0003c0 c0 42 dc 3c eb 58 21 3e 8e ab 27 3e d5 8d 06 be
       0.026887298 0.15756576 0.16374037 -0.13140042
0003d0 8f 7e 82 3e 1c 1c 8f 3e 38 b7 63 3e 7d f3 0b 3e
       0.25487182 0.27951133 0.22237861 0.13667102
0003e0 bd e7 f2 be 1b 61 ce bc dc fc ee bd 6b 74 4c bf
       -0.47442427 -0.025192788 -0.11669323 -0.7986514
0003f0 09 ed d6 3d 2c ee aa be ba bf cd be 9a ff 16 bd
       0.104944296 -0.33384836 -0.40185338 -0.036864854

fc2.bias f4 [64]
000000 14 ea 0a 3d 19 8f 67 3e 68 e8 8d 3e b8 c2 0a be
       0.03391464 0.22613181 0.27716374 -0.13550842
000010 9f 81 83 3e a3 34 07 bc aa 9b c5 bd 34 3d 3c be
       0.2568483 -0.008252296 -0.09648831 -0.18382722
000020 87 41 c8 3e 04 c4 48 3f e9 b6 0d be ba 96 cc 3e
       0.39112493 0.78424096 -0.13839306 0.39958745
000030 67 eb 03 3f 0a df f2 3d 45 98 bc bd 43 d0 33 3e
       0.5153107 0.118589476 -0.092087306 0.17559914
000040 33 07 a1 3c 64 a1 48 3e bb 26 8e bd 8d d2 96 3e
       0.019656753 0.19592816 -0.06940981 0.29457512
000050 3b 89 14 3f ad 3a 60 3f 89 84 fc bd 88 c1 21 be
       0.580219 0.8758953 -0.123299666 -0.15796483
000060 99 19 54 be 1c 6f 38 be 8e be 5f be c7 27 03 be
       -0.2071289 -0.18011135 -0.21850035 -0.12808143
000070 dd 11 94 bd bc f6 d6 3d c2 ad 9d bb 45 34 d8 3e
       -0.0722997 0.104962796 -0.0048119733 0.42227378
000080 94 d1 27 be c9 91 18 3f b4 ac 13 3e ad b1 65 3e
       -0.16388541 0.5959745 0.1442135 0.22431059
000090 65 8e dd 3c 8c 3e b5 be 13 5b a8 3e bb 14 1d 3e
       0.027045438 -0.35399282 0.32881984 0.1533994
0000a0 0d 0a 32 be b7 81 5a 3f ed 42 1a 3f 41 57 ac bb
       -0.17386647 0.8535418 0.6025837 -0.005259425
0000b0 a4 1c e6 3d 64 71 11 be 8b 33 25 3f 23 e5 0d be
       0.112359315 -0.14203411 0.64531773 -0.1385694
0000c0 f3 46 04 be 5b a1 0a 3e 49 e2 78 be 9d 46 4e 3f
       -0.1291769 0.13538115 -0.24305071 0.805765
0000d0 d3 51 39 3d 3a 3f 1e be 8f ae 25 3f 0b c4 c0 bd
       0.04524405 -0.15453807 0.6471948 -0.09412392
0000e0 60 22 a4 be a1 40 29 be eb 6c a0 bc 3d 3b a3 be
       -0.32057476 -0.1652856 -0.019583186 -0.31881133
0000f0 a8 00 b6 3b 7d c3 26 3f 4c 45 2e 3e b6 ef 48 be
       0.0055542774 0.6514204 0.17018622 -0.19622692

fc3.weight f4 [4, 64]
000000 b7 4c 09 3f 32 f6 f7 3d e2 c3 c1 3d 41 92 76 be
       0.5363268 0.12107505 0.0946119 -0.24079229
000010 e5 4e 00 3f 79 6e 97 3d 64 c4 02 3b 03 08 35 be
       0.50120384 0.07394118 0.0019953484 -0.17678837
000020 f9 67 90 3e 70 42 66 3e 5d 89 e6 be d7 f8 a4 3e
       0.28204325 0.22486281 -0.45026675 0.322211
000030 e6 7d 82 3e 8a 35 63 3e 30 50 1c bd a5 62 00 3d
       0.25486678 0.22188392 -0.03816241 0.031344075
000040 fc 97 33 bd b2 35 91 3e d2 a8 90 be f7 07 18 3e
       -0.043846115 0.2836128 -0.282538 0.14846788
000050 45 44 6c 3e 8f 26 a4 3e 03 2c 42 bf 96 7c 9b bd
       0.23072918 0.32060668 -0.75848407 -0.07592122
000060 4b 23 33 bf 9b 9c b4 be 03 a3 f6 bd 73 09 1c 3f
       -0.6997573 -0.3527573 -0.12042811 0.6095192
000070 ff 0f a0 3d 27 17 0e bc 14 0f ba be 61 c7 05 3e
       0.07815551 -0.008672512 -0.3633963 0.13064338
000080 b6 a3 37 3d ec fe 33 3e 90 6d ec 3c e4 67 0f 3e
       0.04483386 0.17577714 0.028860837 0.14004475
000090 8b e4 bf 3e 10 f3 9b be 36 a1 1b 3e ae f1 b0 3e
       0.37479052 -0.3045888 0.15198216 0.34559387
0000a0 73 2f a4 3d cb 07 78 3e 0d 3e 3b 3e e0 37 2e 3e
       0.08016863 0.24221723 0.18285389 0.17013502
0000b0 9b c6 5e 3e 49 bb b6 be 6a 43 39 3e 60 7f a8 3d
       0.2175545 -0.35689762 0.18092123 0.0822742
0000c0 20 b2 35 be 33 09 cf 3d 3b 2b be be ca 67 82 3e
       -0.1774373 0.101091765 -0.37142357 0.2546981
0000d0 b7 98 db 3e a0 09 c8 bd f0 b2 31 3e c6 c3 d1 3e
       0.4288995 -0.09767461 0.17353415 0.40969676
0000e0 78 31 e6 bd f5 d5 42 3e 12 64 a8 3e d3 43 ac be
       -0.11239904 0.1902693 0.32888848 -0.33645496
0000f0 9c 67 e5 be 18 7b 88 3e d5 1d dc 3c 38 84 1e bc
       -0.4480561 0.26656413 0.026869694 -0.009675078
000100 f4 f8 16 3f fd 31 08 3e 6d 70 8b 3e c3 80 b7 be
       0.5897362 0.13300319 0.27234212 -0.35840425
000110 08 8e be 3e 20 eb 64 3e e5 2e b8 be f8 ee e4 3d
       0.37217736 0.22355318 -0.35973278 0.11178392
000120 a9 d6 a7 3e 99 ae 74 3e 7d 4f b9 3d 1d 10 ad 3e
       0.3278096 0.23894729 0.09048364 0.33801356
000130 5a d2 35 3e 1b dd ef 3d 96 79 90 bb 66 9d 87 3e
       0.17756024 0.117120944 -0.0044090254 0.26487273
000140 27 fd 7d 3e 97 60 76 3e b5 d3 2d be 80 64 15 3e
       0.24803601 0.24060284 -0.16975291 0.14589119
000150 b3 c3 1c 3e 09 8a b0 3e cc ba ac be 33 71 be bd
       0.15309028 0.34480312 -0.33736265 -0.09298935
000160 36 b5 98 bd 91 68 02 be 83 39 ab be c5 6f 00 3f
       -0.07456438 -0.12735201 -0.33442315 0.50170547
000170 03 89 44 3e a8 46 af 3e 07 95 3a be 7c 26 65 3e
       0.19192891 0.34233594 -0.18220912 0.22377962
000180 d0 bd a8 bc 4d e4 7b 3e 42 d9 0c bd b0 f1 f3 3d
       -0.020598322 0.24598809 -0.03438688 0.119113326
000190 a1 77 a6 3e 39 80 6e be a4 9f 12 3e 2a 0d 9b 3e
       0.32513145 -0.232911 0.1431871 0.3028348
0001a0 07 c6 d3 3d 20 3c 80 3e 2b d8 4f 3e be 40 be 3e
       0.10340505 0.25045872 0.20297305 0.3715877
0001b0 49 49 8d 3e 0d 1b 39 be 5c ac 38 3e e4 d8 c4 bc
       0.27594975 -0.18076725 0.180345 -0.024029203
0001c0 1a 7c ba bd 05 58 7f 3e e1 2e 73 be fd d6 1d 3e
       -0.09105702 0.2493592 -0.23748352 0.15414043
0001d0 13 65 ac 3c 02 da 8a be e3 35 72 3e ef f5 b5 3e
       0.02104429 -0.27119452 0.23653369 0.35539195
0001e0 b1 25 70 be 14 22 a3 be b8 81 53 be ea 2a 87 be
       -0.23451878 -0.31861937 -0.20654953 -0.26399928
0001f0 24 58 0e be 3f c3 10 3e 88 d4 af 3d c0 9c 10 3f
       -0.1390081 0.1413698 0.08585459 0.5648918
000200 85 96 01 3e f4 53 33 3e d3 34 c2 3e 1f 51 6c be
       0.12655075 0.17512494 0.37930927 -0.2307782
000210 69 04 1b 3e 16 dd 84 3e db 2d a9 3d 81 67 ee 3d
       0.15138401 0.25949925 0.08260699 0.116408356
000220 9e 65 a6 3e da d2 4c 3e 4b ec 37 be d0 2a b5 3d
       0.32499403 0.20002308 -0.17961232 0.088460565
000230 1a 42 2f 3e 63 bb 39 bc 66 5c 98 bd ac 54 6e 3e
       0.1711506 -0.01133618 -0.074394986 0.23274487
000240 8c 5f 76 3e 52 02 b2 3d 48 bd a9 be b2 c0 9b 3d
       0.24059886 0.08691849 -0.33152223 0.07605113
000250 01 b4 57 3e db 71 a4 3e f0 ed 0e bf 56 7b 0b 3e
       0.2106476 0.32118115 -0.55831814 0.13621268
000260 44 ca f4 be 34 05 17 be e7 af 59 be b9 01 cb 3e
       -0.47810566 -0.14748079 -0.21258508 0.39649752
000270 ae 56 13 3e fd cf 90 3e f3 a4 ee bd 8d 32 68 3d
       0.14388534 0.28283682 -0.11652555 0.056688834
000280 b1 b8 b1 be 6d 93 80 3e 04 69 98 3e 86 68 bd 3e
       -0.3471122 0.25112477 0.2976762 0.36993808
000290 50 d2 c9 3e 6f fe 1e be 5a 5f 88 3e 84 8a 7b 3e
       0.39418268 -0.15526746 0.26635247 0.24564558
0002a0 89 bd 81 3d e5 88 82 3e 25 0b 97 3e ba 53 bd 3d
       0.06334979 0.25495067 0.2950069 0.09244485
0002b0 52 2d a8 bc d6 3d 43 be 32 1a 6f 3e de db dc 3d
       -0.020529423 -0.19066557 0.23349836 0.10784124
0002c0 9a 45 4b be ad 11 29 3e b4 f7 f8 bd 16 72 9c 3e
       -0.1985077 0.16510649 -0.121566206 0.3055579
0002d0 15 28 dc be 7d 81 e1 3e a6 9f 4c 3e 8f 12 66 3e
       -0.4299933 0.44044104 0.19982776 0.22468017
0002e0 bf e1 42 be 49 05 a7 3d ce 35 a2 3e 9d 12 66 bd
       -0.19031428 0.08155305 0.31681675 -0.056170095
0002f0 5e b7 e1 3d 4c c3 1c 3e fa f8 51 bf 65 01 0a 3f
       0.11021303 0.15308875 -0.82020533 0.5390838
000300 fe c7 29 3f a5 50 75 3e 20 2b 21 3e 49 2e 36 be
       0.6632079 0.23956545 0.15739107 -0.17791094
000310 85 3f fd bd 0b f2 b1 3e e5 df db be a4 41 30 3c
       -0.12365631 0.34754977 -0.42944255 0.010757837
000320 02 27 1d 3e cf e1 9d 3e 49 43 bb 3d e4 6d 46 3e
       0.15346912 0.3083634 0.09143693 0.19377857
000330 78 63 8d 3e 2a 2b d2 3d 66 15 32 3d d9 3c 40 3e
       0.2761495 0.10262139 0.04347744 0.18773212
000340 03 c0 b3 3e 31 24 0b 3d 01 4a 44 3c 0f f9 04 3e
       0.3510743 0.03397006 0.0119805345 0.12985633
000350 18 0f e4 bc 7a 74 a6 3e c7 3b cd be f6 99 8f 3e
       -0.027839229 0.3251074 -0.4008467 0.2804715
000360 d9 2e 3c bf 0e 05 9a be 97 fd 01 be a4 37 ce 3e
       -0.73508984 -0.3008198 -0.12694393 0.40276825
000370 52 1a 04 3f 57 24 51 3e b9 9c b9 3c 95 ee 13 3e
       0.5160266 0.20424019 0.022657739 0.1444648
000380 f2 e6 82 bd b5 48 7d 3e 53 44 17 be 5b 80 05 3e
       -0.063917056 0.24734767 -0.14772157 0.13037245
000390 c2 5e 96 3d 1c f8 bc bc 90 61 9e 3e c4 76 65 3e
       0.07342292 -0.023067527 0.3093381 0.22408587
0003a0 86 69 8c bd ee a6 a4 3e 55 16 41 3e c1 bf 0a bf
       -0.068560645 0.32158607 0.18856175 -0.54198843
0003b0 e6 db c2 3e 6c 78 b6 be 0a b0 66 3e eb 36 d4 39
       0.38058394 -0.3563875 0.22528091 0.00040476708
0003c0 03 92 3e 3e b7 3f c5 3d ee ff ae bd 18 4f 6f 3e
       0.18610387 0.09631293 -0.085449085 0.23370016
0003d0 e3 1e ea be 00 86 a1 bd f6 fb 85 3e 1d 92 15 3f
       -0.4572669 -0.078868866 0.26168793 0.58426076
0003e0 3a 1e 46 be 1a f8 a1 be bf 38 24 bf d9 4f 01 bf
       -0.19347468 -0.316346 -0.6414909 -0.5051246
0003f0 5b ec 53 3d ec 23 34 3e ed 4b f9 be 85 ed 69 3e
       0.051739078 0.17591828 -0.4869074 0.22844513

fc3.bias f4 [4]
000000 aa 35 22 3f fd c7 f7 3e 6d a3 d1 3e bf 08 d0 3e
       0.63363135 0.48394766 0.40944996 0.40631673
